model/model.pth (torch, 63753 bytes, 4 tensors)

network.0.weight f4 [1024, 11]
00000000: c9b6 3abd a7b5 8d3d a71e 6cbd f089 afbd
00000010: d5aa 32be 3764 053e eb8c 533e 68be a13d
00000020: 3a5c a5bd 9f5e 183d 4b53 9abe 071a 47be
00000030: 1a47 4d3e c293 62bc 43e8 113e cf75 2d3e
00000040: 8cd9 7f3e ce1d 95be b422 12be 875e 103d
00000050: a41e b1bd 5dba 26be 7bf5 41bd d505 85bc
00000060: 6d1d 38be 82fe 403d 03b2 043e d7c9 f73d
00000070: 5fbc 553e fb1d 65be caa2 e73b 5c04 bebe
00000080: d9ea b03d c490 1b3e 9ef3 8abe 748e 8f3e
00000090: 0526 8abe d1cf 8cbe e2dc 423e d725 e93c
000000a0: b08a 5dbe b7fb 3a3e 9ccf 203d f6e7 903e
000000b0: d5a7 6ebd ce14 29bd d6a0 5bbe c75b 64be
000000c0: 395a 163e 177c 26be c69d c0bb 0a5f 543b
000000d0: b7c4 33bd cf7c e53d af9f 90be 93b2 813d
000000e0: a81c ff3d fda9 e23c 6c24 9fbd b5b1 e03d
000000f0: 5d13 e2bd a1de e6bd 6cf9 16bc 75f1 9d3d
00000100: 14ec 91be 5846 40be 0911 55bd a2ba 06be
00000110: 7526 1cbe 121b 55be 3867 3abe cb26 803e
00000120: 0f0c c33d 1393 253e 8271 0c3e 9cd6 26be
00000130: a658 10bd 264a 5bbc 967a 6fbd f96a 1ebe
00000140: 48d8 c93d 3b8c 523e 8a0b fd3c 7b19 583c
00000150: 9247 34be 490c de3d 2fa3 673d 85a0 8abe
00000160: 1ebe 1fbe 3167 dabd 9edf 843e f394 15be
00000170: 3fa6 4a3d 1d0b 503d 32af 053d af17 63be
00000180: 0fdd 3cbe f222 a5bd 4fd6 9abd d133 33be
00000190: 269b 22bd 65cf 263d 8555 88be 535b 33be
000001a0: 584e 7cbe 3517 313d f6a3 aebd a9c5 6ebe
000001b0: 821f 69be ef06 4b3e b4ed a4bd dcd1 593e
000001c0: 6b2e 743e 08ee 543e e41f 72be 803d 073e
000001d0: 0efe e93d 6a69 4ebd 5fff 4c3e 10db 773e
000001e0: a19a 843e 4d09 7c3e e05c 44bd 7749 2c3e
000001f0: 35d1 2abd d3a2 353d 6a71 953d a88f d9bc
00000200: aabd 0dbe 45c6 6cbe 46bc 0e3d cec8 b23c
00000210: cd48 f43b 78f2 97be 2d00 2ebe 9282 893d
00000220: 3f61 5cbe 50ed 0e3e cf7a 3b3e 99f1 5bbe
00000230: 492e 963d 0e6b 253e c3b2 a9bd 4339 1b3e
00000240: b9a4 5fbd 3a64 ac3d 8be4 9e3d 0700 8abe
00000250: 1452 b5bd 1131 1cbe 6573 50bd dc8b 30be
00000260: 4780 25be 6295 4a3d a679 4e3e 4ace bf3c
00000270: 5092 a4bd 066e 57be 4769 90be 2566 513d
00000280: 0071 3d3e 3eaf 21be fc66 8abe f069 edbd
00000290: dcb4 e53c 5806 9dbd 698d 1a3d 00c6 f5bd
000002a0: 4736 463d 04dd 90be 11a5 32be 899e 743e
000002b0: dd00 ee3d e671 91be 9a7f 283e 5d5e 87be
000002c0: 80cd 053e 2997 d4bd 1456 47be 724e 413e
000002d0: 1849 273e b5c3 1ebe 6c93 d4bd 5e66 9fbd
000002e0: e946 95bd 298b d7bc e3d6 183d a7d8 ad3d
000002f0: 9dad 473e 3fa9 f7bd f76f 473d ca78 9b3c
00000300: 1a5e ba3b b786 0db9 dbc6 95be f64f eabd
00000310: 9e91 a7be 4410 a93d f283 02be 61f2 3fbe
00000320: 1110 3abe e259 873d 3cac 98bd 84ad 2f3d
00000330: 0fc0 8abe 10b5 1abd 8c1e 98bd 037d 3ebe
00000340: 91d6 2bbe 9704 cabd 8abd 78bd e9dd 8e3d
00000350: ab1e 91be 8a9f 46be f744 6cbb 9399 45bd
00000360: e54d d4bc dc72 2ebe f6db 3dbe 250b ab3d
00000370: 8743 e3bd da44 6b3d bec8 d23d 4082 75bd
00000380: c38a 9abd 8e22 48be 18bd 413d ca68 c1bc
00000390: ba3c 9a3c b8c2 9dbe 3ab9 03be 8731 66bd
000003a0: a6a0 073e 9b33 b7bc b128 e23d 93dc 0fbd
000003b0: e62a f53d 7611 19be 6215 543d 3159 58be
000003c0: 3838 7d3d 82ac 9fbe 456a 07be 91cc dabd
000003d0: 4317 8c3b b80c 193e c89c f83d 775d 1d3e
000003e0: a69f b3bc 10ec 97be 00ba cfbb 295b 4abe
000003f0: ce81 813d c98d 80be b0c7 47be f3df 65be
-0.045584474 0.06919413 -0.05764642 -0.08571231 -0.1744798 0.1302651 0.20659225 0.07897645
-0.080742314 0.037199613 -0.30141672 -0.19443522 0.20046654 -0.0138291735 0.14248757 0.16939472
0.24985331 -0.29124302 -0.1427105 0.0352464 -0.08648422 -0.1628203 -0.04735325 -0.016238132
-0.17979975 0.047117718 0.12958531 0.12099045 0.20872639 -0.22374718 0.0070689665 -0.371127
0.08638544 0.15191942 -0.2713899 0.2803837 -0.26982132 -0.275023 0.19029573 0.028460426
-0.21634936 0.18260084 0.03926049 0.28301972 -0.058265526 -0.041279607 -0.21448073 -0.22300635
0.14682855 -0.16258274 -0.005878183 0.003240528 -0.043888774 0.11205446 -0.2824683 0.063328885
0.124566376 0.027668947 -0.07770619 0.10971395 -0.110388495 -0.11272932 -0.00921474 0.0771207
-0.28500426 -0.18776834 -0.0520182 -0.13157132 -0.15249045 -0.20811108 -0.18203437 0.25029597
0.09523784 0.16169386 0.13715175 -0.16292804 -0.03524079 -0.013384378 -0.058466516 -0.15470494
0.098557055 0.20561306 0.030889291 0.013189669 -0.17605427 0.10842187 0.05655211 -0.27075592
-0.15599868 -0.106642134 0.25951856 -0.14607601 0.04947495 0.05079185 0.032637782 -0.22177003
-0.18443702 -0.08063306 -0.07560407 -0.17500235 -0.039698742 0.04072513 -0.26627746 -0.17515306
-0.24639261 0.043235023 -0.08527367 -0.23317589 -0.22765926 0.19826864 -0.08053151 0.21271461
0.23845832 0.20793927 -0.23644978 0.13207054 0.1142541 -0.0503935 0.20019291 0.2420466
0.25899222 0.24612923 -0.047940135 0.168249 -0.04170342 0.044344734 0.07297023 -0.026557758
-0.13841882 -0.23122509 0.03484752 0.021824267 0.0074549676 -0.29677176 -0.16992255 0.067143574
-0.21521471 0.13957715 0.18308567 -0.21478881 0.07333047 0.1615412 -0.08286049 0.15158562
-0.05460045 0.08417554 0.07758435 -0.26953146 -0.08853546 -0.15253092 -0.0508913 -0.17240852
-0.16162215 0.04945887 0.20163593 0.023413796 -0.080357194 -0.21038064 -0.2820532 0.051122803
0.18500137 -0.15789506 -0.27031696 -0.115924716 0.028040342 -0.076672256 0.037732515 -0.12000656
0.048391607 -0.28293622 -0.1744578 0.23888601 0.116212584 -0.2840721 0.16454926 -0.2643918
0.13066673 -0.10380394 -0.1946643 0.18877581 0.16336477 -0.15504344 -0.10379681 -0.07783197
-0.07288916 -0.026311474 0.037314307 0.08488589 0.19499822 -0.12092828 0.048690762 0.018978495
0.0056874873 -0.00013496993 -0.29253277 -0.114410326 -0.32728285 0.082550555 -0.12745646 -0.18744804
-0.18170191 0.06608941 -0.07454726 0.042890087 -0.27099654 -0.03777033 -0.07427701 -0.18602376
-0.1678107 -0.09864157 -0.060727634 0.0697592 -0.2834371 -0.19396797 -0.0036051848 -0.048242163
-0.02591605 -0.17036003 -0.1854094 0.08351735 -0.11096864 0.05743871 0.10292195 -0.05993867
-0.07545998 -0.19544432 0.047299474 -0.023609538 0.018827785 -0.3081262 -0.12863627 -0.056199577
0.13244876 -0.022363475 0.110429175 -0.035122465 0.11971073 -0.14948067 0.051778205 -0.21127774
0.061821193 -0.311863 -0.13224132 -0.10683549 0.004275234 0.14946258 0.12139279 0.15367685
-0.021926712 -0.2967229 -0.0063393116 -0.19761337 0.063235864 -0.25108173 -0.19509768 -0.22448711

network.0.bias f4 [1024]
00000000: 8665 f4bc 8796 90be de8d de3b 6cec 63be
00000010: 135d fc3c 40ff a7bd 50db a6bd b94c f43c
00000020: e03f 4bbe 74ee 8cbe ac6f 703d 05bb a8be
00000030: 8f0f 613e 9d87 a9bd 6933 f4bd 2fab 61bd
00000040: fb82 bdbe 6784 5abd 4246 dc3c 0a0e 8d3d
00000050: 910c d5bd f639 64be 34c0 e7bd 8bd4 3abe
00000060: 5d57 a0be a37f 83be 951c 243e a84b 1fbe
00000070: d72c 35be e0dd e2bd 8405 dfbc 045d 01be
00000080: 8911 c8bd 2e30 00be 28c7 4abd 3069 c13b
00000090: 54d5 303d d2ed 31bd 66f1 56bd e559 de3c
000000a0: cd3e 1ebe 06d9 e63d e969 0b3d 25f7 50bd
000000b0: 4358 1dbc 2e56 97be ff70 5fbd 1aab b1ba
000000c0: fb88 4abc bb5a 0cbd dfab 8abe ab5a 7b3d
000000d0: 0583 26be b6bc 583d 3fc4 67be 36af 4bbe
000000e0: 8d8b 8bbe b6ad 6d3e e430 b9bc bd8e 2d3d
000000f0: 00ce 0bbe c425 5fbd da66 2f3d a178 b7be
00000100: 7b85 c23d af9f 253d d8ec 38be f8ba ad3b
00000110: 11f3 d2be bc8d 173d 6414 6c3d b269 ecbd
00000120: 8b0c cebd 3280 84be 63f6 0bbe 9cd3 053e
00000130: a999 9cbe 16b6 8cbe 9049 1cbe a183 973b
00000140: 5129 3cbd 2804 36bd 33c2 aa3d 237f 9dbe
00000150: 4bb5 25be 5e95 04be 4d1b 983d 9bae 90be
00000160: 47d2 203e 5029 d6bc e0fa 75be 9442 8abd
00000170: 6e7f 4bbe 369d 45bd f1ff 87be 8e3c f13d
00000180: 20b9 c9be 70ae b1be 2d00 53be 3448 913d
00000190: a5ac 55be b0fa cebd 2006 563c b8e9 aebe
000001a0: df86 9bbe 22dd 87be 4ed3 d13d 3236 a2be
000001b0: b8cb ee3d a086 8138 8fe8 cabd 3f88 0f3d
000001c0: 3c1b 1ebe 5c99 aebe 91de 84be 6924 b9bd
000001d0: cbec e6ba b98d 02be 0da3 30be 603e 203e
000001e0: cfd6 68be c30e 20bd 8203 8bbb 7f0c 21be
000001f0: 48bd 99be 03e3 93be 0fee 8dbe 0634 32bd
00000200: 3cdd 3b3b 2b3c 9ebe 4ea2 7d3d 6933 bd3d
00000210: 22e1 ea3c e864 50be 4c64 1abe aedb 9ebe
00000220: c654 f93c 5094 82be a188 363c 7327 2fbe
00000230: 4cbd 56bd 531e f8bd 55e4 94bd e383 3fbe
00000240: 3f75 cd3c 12ce e33d 9631 373d 5671 42bd
00000250: c962 eebd 23ef 47be 2a77 663d fd7e 03be
00000260: afed d63d 8749 e73d 83cc 97bb 96c6 b7bc
00000270: a4d3 0bbe 810c 77bd ccbd 99be c7fb 9dbc
00000280: d2ef a3be 9d98 2bbe 9652 0e3d 29e2 2dbe
00000290: ab91 1bbe 829e a1be 089b 24be 0514 9ebe
000002a0: b96a 483d 7162 8abe ee65 f4bd ddac 2c3b
000002b0: d895 e2bd b4db 4abe cf35 67be c234 99bc
000002c0: 8a8e fbbd 6c94 04be 7b7d 7cbd cb62 65be
000002d0: fed2 02bc dd0f 7abe ba84 8dbe 3913 87be
000002e0: 1f47 aabe 5a50 8fbe ba08 243e a068 5d3d
000002f0: 50be a9be f070 523e 5da8 453d b4bc 8bbe
00000300: 058c 27be ad84 2bbe 11bf a53d 1b6a 253e
00000310: 53e7 84bb b6a4 99be 1cf6 41be 0c99 9cbe
00000320: 68e6 96be ea67 bcbe 3e3a 183e 8ba4 b63d
00000330: 6d39 d53c 02a4 9bbd 3fc9 9dbb 85ca 3cbd
00000340: 20a5 a6be 2d00 343e 276c 0dbe a38e c8bc
00000350: f78a 91be a43f a0bd 5178 463c 12a9 83be
00000360: 2d4f a0be 2f5c a2bd d8bf 393b 58d7 7abd
00000370: f987 efbc c221 2c3e ff5b 18be 9d82 88be
00000380: b1c1 9ebe aefe 90be ad02 4dbe 856c 80be
00000390: 8013 8a3d 0b4f 533c 9d31 37be 2535 9bbe
000003a0: b0c5 7cbe ed4e 6abe 0383 bdbd 8e48 86be
000003b0: b153 a8bd 5f84 97be 6512 e43d b34d 96be
000003c0: 12c3 003e 6f57 50be 53a2 d4be ce45 1cbe
000003d0: d4f6 77be df2e a1bd 8bd2 043d 06f4 1abe
000003e0: a225 f8bd 1d3d bbbb 9be4 b2be ebae 81be
000003f0: 0620 df3d 4700 2abe 17fb 8cbe fce0 aa3d
-0.029833566 -0.28239843 0.006791814 -0.22258157 0.0308061 -0.08202982 -0.08147299 0.02982174
-0.19848585 -0.27525675 0.05870025 -0.32955185 0.21978591 -0.08277819 -0.11923868 -0.055094894
-0.37013993 -0.053348925 0.02688897 0.06887443 -0.104027875 -0.22287735 -0.11315957 -0.18245141
-0.31316653 -0.25683317 0.16026528 -0.15556204 -0.17692886 -0.110774755 -0.02722431 -0.12633139
-0.097689696 -0.12518379 -0.049506336 0.005902432 0.043172196 -0.043439694 -0.05247631 0.027142474
-0.15453644 0.11271863 0.03403655 -0.051016945 -0.009603563 -0.29557937 -0.05455112 -0.001355502
-0.01236176 -0.034266215 -0.27084252 0.061365765 -0.16260917 0.052914344 -0.22633456 -0.19891056
-0.27254906 0.23210797 -0.02260632 0.042372454 -0.13652802 -0.054479375 0.042822696 -0.3583422
0.09498116 0.04043549 -0.18059099 0.0053018294 -0.4120107 0.037000403 0.057636634 -0.11543597
-0.10060986 -0.25879055 -0.13668208 0.13069004 -0.30585983 -0.2748267 -0.15262437 0.0046238457
-0.04593784 -0.044437557 0.08337822 -0.3076106 -0.16182439 -0.12947604 0.07427082 -0.28258213
0.15705214 -0.026142746 -0.24021482 -0.0675098 -0.1987283 -0.04824563 -0.26562455 0.11779128
-0.39399052 -0.34703398 -0.20605536 0.0709385 -0.2086664 -0.101064086 0.013062984 -0.34162688
-0.30376336 -0.26535898 0.10245381 -0.31681973 0.1165995 6.176275e-05 -0.09907638 0.035042044
-0.15440077 -0.3410138 -0.25951055 -0.09040148 -0.0017618177 -0.12749375 -0.17249699 0.15648794
-0.22738193 -0.039076578 -0.0042423615 -0.15727423 -0.30027223 -0.28884134 -0.27720687 -0.043506645
0.0028665802 -0.3090528 0.061922364 0.09238321 0.028671805 -0.20350993 -0.15077323 -0.31026977
0.030435931 -0.25503778 0.011140973 -0.17104892 -0.05242662 -0.12115159 -0.072701134 -0.18702655
0.025080321 0.11123289 0.044725023 -0.047471367 -0.116399355 -0.19524817 0.056265987 -0.12841411
0.10494553 0.11293321 -0.004632534 -0.02243356 -0.13654953 -0.06031466 -0.30027616 -0.019285096
-0.32018906 -0.16757436 0.03474673 -0.16980805 -0.15192287 -0.31566244 -0.16074765 -0.3087465
0.048929904 -0.2702823 -0.11933504 0.0026348152 -0.11063737 -0.19810373 -0.2257912 -0.018701915
-0.122830465 -0.12947243 -0.061643105 -0.22400968 -0.007984875 -0.24420114 -0.27640325 -0.26381853
-0.33257386 -0.2799099 0.16018954 0.054054856 -0.3315301 0.20550895 0.048256267 -0.27292407
-0.16362007 -0.1674983 0.08093084 0.16153757 -0.0040558963 -0.30008477 -0.1894154 -0.30585515
-0.2947266 -0.3679803 0.14865968 0.08918103 0.02602836 -0.075996414 -0.00481525 -0.046091575
-0.32547855 0.17578192 -0.13810788 -0.024482077 -0.28426334 -0.078246385 0.012113647 -0.25714928
-0.31310406 -0.07927739 0.0028343108 -0.061240524 -0.029239642 0.16809753 -0.14878844 -0.2666215
-0.3100715 -0.28319305 -0.20020552 -0.25082794 0.067420006 0.012897263 -0.1789002 -0.30313984
-0.24684787 -0.2288167 -0.09253504 -0.2622723 -0.08219088 -0.2959318 0.11136321 -0.29356155
0.12574413 -0.20345853 -0.41530094 -0.15261003 -0.24215251 -0.07870268 0.032427352 -0.1513215
-0.12116553 -0.0057140724 -0.34940037 -0.25328764 0.1089478 -0.16601668 -0.27535316 0.083436936

network.2.weight f4 [3, 1024]
00000000: 50c4 3fbc e750 94bb 88f0 a93b 936e fcbd
00000010: b48d 93bc 1c84 fabb 87ee 8fbc d301 debc
00000020: ba4b 233c fab6 953b 30c1 68bd 309d a3bc
00000030: ac85 6abd 205e 5f3b 081c dcbc f008 d7bc
00000040: e20e a63b 326d 3dbc f1d6 33bb 1e73 1bbc
00000050: 9a39 bfbb 384f 23bc 981a c0ba dd1b 783c
00000060: 87f5 96bc f41e 27bd e5af d8bc 4f41 27bd
00000070: 2455 863c 7758 0abc c6d7 593d 5968 61bb
00000080: 58c3 d6bc 3853 d4bc 2ef8 00bd 3a53 a8bc
00000090: dfd4 a23c f529 07bd 79bc ecb9 2ba2 f23b
000000a0: a613 b7bc 4c21 26bd 98c9 6f3c 6dea 7abc
000000b0: b8a5 823a e30c 043b b84e 89bc 4f2c f4bc
000000c0: 9905 e23b f9e1 acbc a57d bc3c eb23 cfb9
000000d0: 294c 17bd 925c ab3b 7cc4 8cbc 195b c7bd
000000e0: fa68 56bd c535 ca3a 0056 3f3a 948a 543c
000000f0: d78a 383c 2bbb b8bb 981a 82ba 30a4 58bb
00000100: 3d83 9b39 a165 503c 7a58 7dba 6574 773b
00000110: 0e2e 1dbc 3de8 233d 6f3c 58bc c85b 08bc
00000120: 82c7 30bd f70e 4bbc 391c 0fbd 43cf 8abc
00000130: 59a9 2bbc 0ab4 8fbc 090d f33b c018 3ebc
00000140: 6ccd 45bd 25e9 17bd f8d2 10bd bcb7 0d3d
00000150: becd 92bd 0450 5b3c 47e9 9f3a 2c08 08bc
00000160: f08c 19bd f839 e13a 4787 71bc aae1 fc3b
00000170: 351d dabc e87e 85bd cbcb 70bd 3c12 ccbc
00000180: d364 81bb 60d6 90ba 0c16 96bc 4835 f13c
00000190: 7cf1 e13c 9e47 a3bc 4e84 1a3c cdb6 4dbc
000001a0: 094d 11bc d025 7e3b b235 85bc cac9 1d3c
000001b0: b7e5 96bc 0b05 8d3c 7109 82bc 67f0 53bc
000001c0: 8ac0 0c3b 07c0 4bbd 79b5 86bc fe5e 16bd
000001d0: 5e1c 123b 2720 ac3c 7096 603c 16db f6bc
000001e0: 6d14 32bc 63b5 b4bb dbf9 89bd 247b fd3b
000001f0: 99c3 e8bc b7b7 69bd ef11 323b 7ecf 03bc
00000200: 91d1 8dbc 6fbf 46bc dd63 ab3c 110f 1ebd
00000210: 6e99 f6bb 5fcc 4a3b 436c 923b eb76 c4bb
00000220: c606 72bd 60d6 113c 37ce e13a 9c4e bcbb
00000230: 3944 d13b c91e f33b 913d 463c 7a28 cd3c
00000240: 6c81 17bc 4dff cdbc 0f28 f7bc 7e25 b9bb
00000250: 0220 1b3d 532c 3dbb 4d59 9e3b d3f4 c4bd
00000260: 54f1 323d 1707 853c afbb 02bd 3585 fd3b
00000270: cb5f 8cbc 1da8 843b c6ff 56bc 4a6e 5dbc
00000280: c2e9 a8ba d51c 63bd 483f 33bc 04ae a43c
00000290: 7fed 1fbd aadc 123c fc17 99bc ade3 c83c
000002a0: 0776 9b3c c499 eb3a 05de 30bc 71ad 0abd
000002b0: 751d b33b 595d d1bb cfa5 153d ee6a c3bb
000002c0: cf3e a0bb cb97 40bb c20e 83bc 8fae 163d
000002d0: f81a 813c b439 04bc fca9 6cbb b4e8 6abc
000002e0: bc13 ad3b 3323 353c d1de 57bc 7f14 6abd
000002f0: 7740 38bc 495d 05bd 14dc 76bc ef21 7abd
00000300: 685e 83bc f922 3ebc 0733 abbc e044 b6bc
00000310: 8625 bcbb 4bf1 54bc b886 633c 5d12 723c
00000320: e1bb 8bbb 3333 063c 0a1b 5e3c fe56 323c
00000330: f070 e5bb 5ba6 21bc 5fbf 94bb a2c5 39bc
00000340: dcda 49bb 2e5a b93b 7ff3 3b3c db7e 1abc
00000350: 36d0 b9bd a6bf 03bc e45a 543a adbe 24bd
00000360: 3a01 18bc 4b50 ccbb a23f 75bd 7ca4 a13c
00000370: 0d6d 9bbc b8f6 1bbd 81a8 64ba 871f 48bd
00000380: ef01 99bb a100 b3bb 142b 1dbc e8ed 40bb
00000390: 2a37 a2bc eb72 103d 86ed 65bc 785f cabb
000003a0: bd1e adbd e211 9abd e306 8b3b 2131 023d
000003b0: 602f 01bb 7e1d 11bb 7b26 c2bc 0ab1 06bc
000003c0: b6ff 88bc f9db b5bc 3150 e9bb 62b1 093b
000003d0: 2de3 b6bc ca80 abbc c513 4e3d 7cff f2bb
000003e0: 7a09 2abd 4fcb 10bd 25e1 403b 5a53 8bbd
000003f0: 40c1 363d dbdc 01bd 5758 c13c 457c 1dbc
-0.011704519 -0.004526246 0.0051861443 -0.12325778 -0.018011905 -0.007645143 -0.017569793 -0.02710048
0.009966785 0.0045689316 -0.056824863 -0.019972414 -0.057256386 0.0034083202 -0.026868835 -0.026249379
0.005067692 -0.011561679 -0.0027441347 -0.009487895 -0.005835724 -0.009967618 -0.0014656363 0.015143362
-0.018427623 -0.040801004 -0.02645106 -0.040833768 0.01639802 -0.008443943 0.053184293 -0.0034394471
-0.026216194 -0.025918588 -0.031486683 -0.020547498 0.019876895 -0.032998998 -0.0004515385 0.007404586
-0.022348236 -0.040559098 0.014635466 -0.0153146805 0.0009967601 0.0020149283 -0.016761169 -0.029806284
0.00689764 -0.021103846 0.02300913 -0.00039508878 -0.036937866 0.005229541 -0.017183535 -0.097341724
-0.052346207 0.0015427402 0.0007298887 0.012972493 0.011263571 -0.0056375465 -0.0009926138 -0.0033056848
0.00029661684 0.012719543 -0.0009664368 0.0037758586 -0.0095935 0.0400164 -0.013198002 -0.008322664
-0.043159015 -0.012393705 -0.034939025 -0.016944533 -0.010477387 -0.017541904 0.0074173254 -0.011602581
-0.04829161 -0.03708758 -0.035357445 0.03459905 -0.071681485 0.013385776 0.0012200259 -0.00830273
-0.037487924 0.0017183414 -0.014741725 0.007717331 -0.026625255 -0.06518346 -0.058788102 -0.024911039
-0.0039487868 -0.0011050217 -0.01832106 0.029444352 0.027580969 -0.01993161 0.009430958 -0.01255579
-0.008868464 0.0038779862 -0.016260955 0.00963063 -0.018420083 0.017214319 -0.015873643 -0.012935734
0.0021477067 -0.04974368 -0.016443955 -0.036711685 0.002229474 0.021011425 0.013707742 -0.030133765
-0.010869128 -0.005514787 -0.06737109 0.007735627 -0.02841358 -0.05705997 0.0027171334 -0.008045075
-0.017311843 -0.012130602 0.020921642 -0.038588587 -0.0075256145 0.0030944569 0.004468472 -0.0059956214
-0.05908849 0.008901209 0.0017227595 -0.0057466757 0.0063863066 0.0074194414 0.0120996395 0.025043715
-0.009247165 -0.025146151 -0.030170469 -0.0056502214 0.037872322 -0.002886553 0.004832423 -0.09617009
0.04368718 0.016238732 -0.03191727 0.007736827 -0.017135521 0.004048361 -0.013122505 -0.0135150645
-0.0012887048 -0.05544742 -0.01094038 0.020102508 -0.039044853 0.008963743 -0.018688194 0.024522627
0.018977178 0.0017974903 -0.010795121 -0.033856813 0.005466158 -0.0063893017 0.03653508 -0.0059636747
-0.0048903 -0.002938735 -0.015998248 0.036787566 0.01575993 -0.008070398 -0.003611206 -0.014337707
0.0052818935 0.011055755 -0.013175682 -0.057148453 -0.011245838 -0.032559667 -0.015067119 -0.061067518
-0.016036227 -0.011605018 -0.020898355 -0.022249639 -0.005741778 -0.012996982 0.0138871 0.014774886
-0.0042643403 0.008190918 0.013556251 0.010884998 -0.0070019886 -0.009866322 -0.004539415 -0.011338623
-0.0030800616 0.005656502 0.011471628 -0.009429659 -0.09072916 -0.008041298 0.0008100702 -0.040220905
-0.009277636 -0.0062351576 -0.059875138 0.019731753 -0.018972898 -0.038077086 -0.0008722619 -0.04885819
-0.00466942 -0.0054627215 -0.00959279 -0.0029438678 -0.019801695 0.035265844 -0.014033681 -0.0061759315
-0.084531285 -0.07522942 0.0042427643 0.031785134 -0.0019712076 -0.0022142823 -0.02369999 -0.00822092
-0.016723495 -0.022199618 -0.0071201553 0.002101027 -0.022325123 -0.020935435 0.050311822 -0.00741571
-0.041512944 -0.03535014 0.0029431072 -0.068030074 0.04461789 -0.031704765 0.023601694 -0.009612148

network.2.bias f4 [3]
00000000: 2d70 b8bc f1ee 5fbd 0428 93bd
-0.022514427 -0.05467123 -0.07185367
